…
Epoch 00004: val_loss did not improve from 0.36613
Epoch 5/10
257/257 [==============================] - 504s 2s/step - loss: 0.0019 - acc: 0.9997 - val_loss: 0.4222 - val_acc: 0.8671

Epoch 00005: val_loss did not improve from 0.36613
Found 16504 images belonging to 10 classes.
Found 4724 images belonging to 10 classes.
__________________________________________________________________________________________________
Layer (type)                    Output Shape         Param #     Connected to
==================================================================================================
input_4 (InputLayer)            (None, 480, 480, 3)  0
__________________________________________________________________________________________________
lambda_10 (Lambda)              (None, 480, 480, 3)  0           input_4[0][0]
__________________________________________________________________________________________________
block1_conv1 (Conv2D)           (None, 239, 239, 32) 864         lambda_10[0][0]
__________________________________________________________________________________________________
block1_conv1_bn (BatchNormaliza (None, 239, 239, 32) 128         block1_conv1[0][0]
__________________________________________________________________________________________________
block1_conv1_act (Activation)   (None, 239, 239, 32) 0           block1_conv1_bn[0][0]
__________________________________________________________________________________________________
block1_conv2 (Conv2D)           (None, 237, 237, 64) 18432       block1_conv1_act[0][0]
__________________________________________________________________________________________________
block1_conv2_bn (BatchNormaliza (None, 237, 237, 64) 256         block1_conv2[0][0]
__________________________________________________________________________________________________
block1_conv2_act (Activation)   (None, 237, 237, 64) 0           block1_conv2_bn[0][0]
__________________________________________________________________________________________________
block2_sepconv1 (SeparableConv2 (None, 237, 237, 128 8768        block1_conv2_act[0][0]
__________________________________________________________________________________________________
block2_sepconv1_bn (BatchNormal (None, 237, 237, 128 512         block2_sepconv1[0][0]
…
block3_sepconv2_act (Activation (None, 119, 119, 256 0           block3_sepconv1_bn[0][0]
__________________________________________________________________________________________________
block3_sepconv2 (SeparableConv2 (None, 119, 119, 256 67840       block3_sepconv2_act[0][0]
__________________________________________________________________________________________________
block3_sepconv2_bn (BatchNormal (None, 119, 119, 256 1024        block3_sepconv2[0][0]
__________________________________________________________________________________________________
conv2d_100 (Conv2D)             (None, 60, 60, 256)  32768       add_29[0][0]
__________________________________________________________________________________________________
block3_pool (MaxPooling2D)      (None, 60, 60, 256)  0           block3_sepconv2_bn[0][0]
__________________________________________________________________________________________________
batch_normalization_100 (BatchN (None, 60, 60, 256)  1024        conv2d_100[0][0]
__________________________________________________________________________________________________
add_30 (Add)                    (None, 60, 60, 256)  0           block3_pool[0][0]
                                                                 batch_normalization_100[0][0]
__________________________________________________________________________________________________
block4_sepconv1_act (Activation (None, 60, 60, 256)  0           add_30[0][0]
__________________________________________________________________________________________________
block4_sepconv1 (SeparableConv2 (None, 60, 60, 728)  188672      block4_sepconv1_act[0][0]
__________________________________________________________________________________________________
block4_sepconv1_bn (BatchNormal (None, 60, 60, 728)  2912        block4_sepconv1[0][0]
__________________________________________________________________________________________________
block4_sepconv2_act (Activation (None, 60, 60, 728)  0           block4_sepconv1_bn[0][0]
__________________________________________________________________________________________________
block4_sepconv2 (SeparableConv2 (None, 60, 60, 728)  536536      block4_sepconv2_act[0][0]
__________________________________________________________________________________________________
block4_sepconv2_bn (BatchNormal (None, 60, 60, 728)  2912        block4_sepconv2[0][0]
__________________________________________________________________________________________________
conv2d_101 (Conv2D)             (None, 30, 30, 728)  186368      add_30[0][0]
__________________________________________________________________________________________________
block4_pool (MaxPooling2D)      (None, 30, 30, 728)  0           block4_sepconv2_bn[0][0]
__________________________________________________________________________________________________
batch_normalization_101 (BatchN (None, 30, 30, 728)  2912        conv2d_101[0][0]
__________________________________________________________________________________________________
add_31 (Add)                    (None, 30, 30, 728)  0           block4_pool[0][0]
                                                                 batch_normalization_101[0][0]
__________________________________________________________________________________________________
block5_sepconv1_act (Activation (None, 30, 30, 728)  0           add_31[0][0]
__________________________________________________________________________________________________
block5_sepconv1 (SeparableConv2 (None, 30, 30, 728)  536536      block5_sepconv1_act[0][0]
__________________________________________________________________________________________________
block5_sepconv1_bn (BatchNormal (None, 30, 30, 728)  2912        block5_sepconv1[0][0]
__________________________________________________________________________________________________
block5_sepconv2_act (Activation (None, 30, 30, 728)  0           block5_sepconv1_bn[0][0]
__________________________________________________________________________________________________
block5_sepconv2 (SeparableConv2 (None, 30, 30, 728)  536536      block5_sepconv2_act[0][0]
__________________________________________________________________________________________________
block5_sepconv2_bn (BatchNormal (None, 30, 30, 728)  2912        block5_sepconv2[0][0]
__________________________________________________________________________________________________
block5_sepconv3_act (Activation (None, 30, 30, 728)  0           block5_sepconv2_bn[0][0]
__________________________________________________________________________________________________
block5_sepconv3 (SeparableConv2 (None, 30, 30, 728)  536536      block5_sepconv3_act[0][0]
__________________________________________________________________________________________________
block5_sepconv3_bn (BatchNormal (None, 30, 30, 728)  2912        block5_sepconv3[0][0]
__________________________________________________________________________________________________
add_32 (Add)                    (None, 30, 30, 728)  0           block5_sepconv3_bn[0][0]
                                                                 add_31[0][0]
__________________________________________________________________________________________________
block6_sepconv1_act (Activation (None, 30, 30, 728)  0           add_32[0][0]
__________________________________________________________________________________________________
block6_sepconv1 (SeparableConv2 (None, 30, 30, 728)  536536      block6_sepconv1_act[0][0]
__________________________________________________________________________________________________
block6_sepconv1_bn (BatchNormal (None, 30, 30, 728)  2912        block6_sepconv1[0][0]
__________________________________________________________________________________________________
block6_sepconv2_act (Activation (None, 30, 30, 728)  0           block6_sepconv1_bn[0][0]
__________________________________________________________________________________________________
block6_sepconv2 (SeparableConv2 (None, 30, 30, 728)  536536      block6_sepconv2_act[0][0]
__________________________________________________________________________________________________
block6_sepconv2_bn (BatchNormal (None, 30, 30, 728)  2912        block6_sepconv2[0][0]
__________________________________________________________________________________________________
block6_sepconv3_act (Activation (None, 30, 30, 728)  0           block6_sepconv2_bn[0][0]
__________________________________________________________________________________________________
block6_sepconv3 (SeparableConv2 (None, 30, 30, 728)  536536      block6_sepconv3_act[0][0]
__________________________________________________________________________________________________
block6_sepconv3_bn (BatchNormal (None, 30, 30, 728)  2912        block6_sepconv3[0][0]
__________________________________________________________________________________________________
add_33 (Add)                    (None, 30, 30, 728)  0           block6_sepconv3_bn[0][0]
                                                                 add_32[0][0]
__________________________________________________________________________________________________
block7_sepconv1_act (Activation (None, 30, 30, 728)  0           add_33[0][0]
__________________________________________________________________________________________________
block7_sepconv1 (SeparableConv2 (None, 30, 30, 728)  536536      block7_sepconv1_act[0][0]
__________________________________________________________________________________________________
block7_sepconv1_bn (BatchNormal (None, 30, 30, 728)  2912        block7_sepconv1[0][0]
__________________________________________________________________________________________________
block7_sepconv2_act (Activation (None, 30, 30, 728)  0           block7_sepconv1_bn[0][0]
__________________________________________________________________________________________________
block7_sepconv2 (SeparableConv2 (None, 30, 30, 728)  536536      block7_sepconv2_act[0][0]
__________________________________________________________________________________________________
block7_sepconv2_bn (BatchNormal (None, 30, 30, 728)  2912        block7_sepconv2[0][0]
__________________________________________________________________________________________________
block7_sepconv3_act (Activation (None, 30, 30, 728)  0           block7_sepconv2_bn[0][0]
__________________________________________________________________________________________________
block7_sepconv3 (SeparableConv2 (None, 30, 30, 728)  536536      block7_sepconv3_act[0][0]
__________________________________________________________________________________________________
block7_sepconv3_bn (BatchNormal (None, 30, 30, 728)  2912        block7_sepconv3[0][0]
__________________________________________________________________________________________________
add_34 (Add)                    (None, 30, 30, 728)  0           block7_sepconv3_bn[0][0]
                                                                 add_33[0][0]
__________________________________________________________________________________________________
block8_sepconv1_act (Activation (None, 30, 30, 728)  0           add_34[0][0]
__________________________________________________________________________________________________
block8_sepconv1 (SeparableConv2 (None, 30, 30, 728)  536536      block8_sepconv1_act[0][0]
__________________________________________________________________________________________________
block8_sepconv1_bn (BatchNormal (None, 30, 30, 728)  2912        block8_sepconv1[0][0]
__________________________________________________________________________________________________
block8_sepconv2_act (Activation (None, 30, 30, 728)  0           block8_sepconv1_bn[0][0]
__________________________________________________________________________________________________
block8_sepconv2 (SeparableConv2 (None, 30, 30, 728)  536536      block8_sepconv2_act[0][0]
__________________________________________________________________________________________________
block8_sepconv2_bn (BatchNormal (None, 30, 30, 728)  2912        block8_sepconv2[0][0]
__________________________________________________________________________________________________
block8_sepconv3_act (Activation (None, 30, 30, 728)  0           block8_sepconv2_bn[0][0]
__________________________________________________________________________________________________
block8_sepconv3 (SeparableConv2 (None, 30, 30, 728)  536536      block8_sepconv3_act[0][0]
__________________________________________________________________________________________________
block8_sepconv3_bn (BatchNormal (None, 30, 30, 728)  2912        block8_sepconv3[0][0]
__________________________________________________________________________________________________
add_35 (Add)                    (None, 30, 30, 728)  0           block8_sepconv3_bn[0][0]
                                                                 add_34[0][0]
__________________________________________________________________________________________________
block9_sepconv1_act (Activation (None, 30, 30, 728)  0           add_35[0][0]
__________________________________________________________________________________________________
block9_sepconv1 (SeparableConv2 (None, 30, 30, 728)  536536      block9_sepconv1_act[0][0]
__________________________________________________________________________________________________
block9_sepconv1_bn (BatchNormal (None, 30, 30, 728)  2912        block9_sepconv1[0][0]
__________________________________________________________________________________________________
block9_sepconv2_act (Activation (None, 30, 30, 728)  0           block9_sepconv1_bn[0][0]
__________________________________________________________________________________________________
block9_sepconv2 (SeparableConv2 (None, 30, 30, 728)  536536      block9_sepconv2_act[0][0]
__________________________________________________________________________________________________
block9_sepconv2_bn (BatchNormal (None, 30, 30, 728)  2912        block9_sepconv2[0][0]
__________________________________________________________________________________________________
block9_sepconv3_act (Activation (None, 30, 30, 728)  0           block9_sepconv2_bn[0][0]
__________________________________________________________________________________________________
block9_sepconv3 (SeparableConv2 (None, 30, 30, 728)  536536      block9_sepconv3_act[0][0]
__________________________________________________________________________________________________
block9_sepconv3_bn (BatchNormal (None, 30, 30, 728)  2912        block9_sepconv3[0][0]
__________________________________________________________________________________________________
add_36 (Add)                    (None, 30, 30, 728)  0           block9_sepconv3_bn[0][0]
                                                                 add_35[0][0]
__________________________________________________________________________________________________
block10_sepconv1_act (Activatio (None, 30, 30, 728)  0           add_36[0][0]
__________________________________________________________________________________________________
block10_sepconv1 (SeparableConv (None, 30, 30, 728)  536536      block10_sepconv1_act[0][0]
__________________________________________________________________________________________________
block10_sepconv1_bn (BatchNorma (None, 30, 30, 728)  2912        block10_sepconv1[0][0]
__________________________________________________________________________________________________
block10_sepconv2_act (Activatio (None, 30, 30, 728)  0           block10_sepconv1_bn[0][0]
__________________________________________________________________________________________________
block10_sepconv2 (SeparableConv (None, 30, 30, 728)  536536      block10_sepconv2_act[0][0]
__________________________________________________________________________________________________
block10_sepconv2_bn (BatchNorma (None, 30, 30, 728)  2912        block10_sepconv2[0][0]
__________________________________________________________________________________________________
block10_sepconv3_act (Activatio (None, 30, 30, 728)  0           block10_sepconv2_bn[0][0]
__________________________________________________________________________________________________
block10_sepconv3 (SeparableConv (None, 30, 30, 728)  536536      block10_sepconv3_act[0][0]
__________________________________________________________________________________________________
block10_sepconv3_bn (BatchNorma (None, 30, 30, 728)  2912        block10_sepconv3[0][0]
__________________________________________________________________________________________________
add_37 (Add)                    (None, 30, 30, 728)  0           block10_sepconv3_bn[0][0]
                                                                 add_36[0][0]
__________________________________________________________________________________________________
block11_sepconv1_act (Activatio (None, 30, 30, 728)  0           add_37[0][0]
__________________________________________________________________________________________________
block11_sepconv1 (SeparableConv (None, 30, 30, 728)  536536      block11_sepconv1_act[0][0]
__________________________________________________________________________________________________
block11_sepconv1_bn (BatchNorma (None, 30, 30, 728)  2912        block11_sepconv1[0][0]
__________________________________________________________________________________________________
block11_sepconv2_act (Activatio (None, 30, 30, 728)  0           block11_sepconv1_bn[0][0]
__________________________________________________________________________________________________
block11_sepconv2 (SeparableConv (None, 30, 30, 728)  536536      block11_sepconv2_act[0][0]
__________________________________________________________________________________________________
block11_sepconv2_bn (BatchNorma (None, 30, 30, 728)  2912        block11_sepconv2[0][0]
__________________________________________________________________________________________________
block11_sepconv3_act (Activatio (None, 30, 30, 728)  0           block11_sepconv2_bn[0][0]
__________________________________________________________________________________________________
block11_sepconv3 (SeparableConv (None, 30, 30, 728)  536536      block11_sepconv3_act[0][0]
__________________________________________________________________________________________________
block11_sepconv3_bn (BatchNorma (None, 30, 30, 728)  2912        block11_sepconv3[0][0]
__________________________________________________________________________________________________
add_38 (Add)                    (None, 30, 30, 728)  0           block11_sepconv3_bn[0][0]
                                                                 add_37[0][0]
__________________________________________________________________________________________________
block12_sepconv1_act (Activatio (None, 30, 30, 728)  0           add_38[0][0]
__________________________________________________________________________________________________
block12_sepconv1 (SeparableConv (None, 30, 30, 728)  536536      block12_sepconv1_act[0][0]
__________________________________________________________________________________________________
block12_sepconv1_bn (BatchNorma (None, 30, 30, 728)  2912        block12_sepconv1[0][0]
__________________________________________________________________________________________________
block12_sepconv2_act (Activatio (None, 30, 30, 728)  0           block12_sepconv1_bn[0][0]
__________________________________________________________________________________________________
block12_sepconv2 (SeparableConv (None, 30, 30, 728)  536536      block12_sepconv2_act[0][0]
__________________________________________________________________________________________________
block12_sepconv2_bn (BatchNorma (None, 30, 30, 728)  2912        block12_sepconv2[0][0]
__________________________________________________________________________________________________
block12_sepconv3_act (Activatio (None, 30, 30, 728)  0           block12_sepconv2_bn[0][0]
__________________________________________________________________________________________________
block12_sepconv3 (SeparableConv (None, 30, 30, 728)  536536      block12_sepconv3_act[0][0]
__________________________________________________________________________________________________
block12_sepconv3_bn (BatchNorma (None, 30, 30, 728)  2912        block12_sepconv3[0][0]
__________________________________________________________________________________________________
add_39 (Add)                    (None, 30, 30, 728)  0           block12_sepconv3_bn[0][0]
                                                                 add_38[0][0]
__________________________________________________________________________________________________
block13_sepconv1_act (Activatio (None, 30, 30, 728)  0           add_39[0][0]
__________________________________________________________________________________________________
block13_sepconv1 (SeparableConv (None, 30, 30, 728)  536536      block13_sepconv1_act[0][0]
__________________________________________________________________________________________________
block13_sepconv1_bn (BatchNorma (None, 30, 30, 728)  2912        block13_sepconv1[0][0]
__________________________________________________________________________________________________
block13_sepconv2_act (Activatio (None, 30, 30, 728)  0           block13_sepconv1_bn[0][0]
__________________________________________________________________________________________________
block13_sepconv2 (SeparableConv (None, 30, 30, 1024) 752024      block13_sepconv2_act[0][0]
__________________________________________________________________________________________________
block13_sepconv2_bn (BatchNorma (None, 30, 30, 1024) 4096        block13_sepconv2[0][0]
__________________________________________________________________________________________________
conv2d_102 (Conv2D)             (None, 15, 15, 1024) 745472      add_39[0][0]
__________________________________________________________________________________________________
block13_pool (MaxPooling2D)     (None, 15, 15, 1024) 0           block13_sepconv2_bn[0][0]
__________________________________________________________________________________________________
batch_normalization_102 (BatchN (None, 15, 15, 1024) 4096        conv2d_102[0][0]
__________________________________________________________________________________________________
add_40 (Add)                    (None, 15, 15, 1024) 0           block13_pool[0][0]
                                                                 batch_normalization_102[0][0]
__________________________________________________________________________________________________
block14_sepconv1 (SeparableConv (None, 15, 15, 1536) 1582080     add_40[0][0]
__________________________________________________________________________________________________
block14_sepconv1_bn (BatchNorma (None, 15, 15, 1536) 6144        block14_sepconv1[0][0]
__________________________________________________________________________________________________
block14_sepconv1_act (Activatio (None, 15, 15, 1536) 0           block14_sepconv1_bn[0][0]
__________________________________________________________________________________________________
block14_sepconv2 (SeparableConv (None, 15, 15, 2048) 3159552     block14_sepconv1_act[0][0]
__________________________________________________________________________________________________
block14_sepconv2_bn (BatchNorma (None, 15, 15, 2048) 8192        block14_sepconv2[0][0]
__________________________________________________________________________________________________
block14_sepconv2_act (Activatio (None, 15, 15, 2048) 0           block14_sepconv2_bn[0][0]
__________________________________________________________________________________________________
global_average_pooling2d_4 (Glo (None, 2048)         0           block14_sepconv2_act[0][0]
==================================================================================================
Total params: 20,861,480
Trainable params: 20,806,952
Non-trainable params: 54,528
__________________________________________________________________________________________________
257/257 [==============================] - 332s 1s/step
73/73 [==============================] - 103s 1s/step
/home/yilonghao/ml/venv/lib/python3.5/site-packages/keras_applications/resnet50.py:263: UserWarning: The output shape of `ResNet50(include_top=False)` has been changed since Keras 2.2.0.
  warnings.warn('The output shape of `ResNet50(include_top=False)` '
__________________________________________________________________________________________________
Layer (type)                    Output Shape         Param #     Connected to
==================================================================================================
input_5 (InputLayer)            (None, 480, 480, 3)  0
__________________________________________________________________________________________________
lambda_11 (Lambda)              (None, 480, 480, 3)  0           input_5[0][0]
__________________________________________________________________________________________________
conv1_pad (ZeroPadding2D)       (None, 486, 486, 3)  0           lambda_11[0][0]
__________________________________________________________________________________________________
conv1 (Conv2D)                  (None, 240, 240, 64) 9472        conv1_pad[0][0]
__________________________________________________________________________________________________
bn_conv1 (BatchNormalization)   (None, 240, 240, 64) 256         conv1[0][0]
__________________________________________________________________________________________________
activation_144 (Activation)     (None, 240, 240, 64) 0           bn_conv1[0][0]
__________________________________________________________________________________________________
max_pooling2d_6 (MaxPooling2D)  (None, 119, 119, 64) 0           activation_144[0][0]
__________________________________________________________________________________________________
res2a_branch2a (Conv2D)         (None, 119, 119, 64) 4160        max_pooling2d_6[0][0]
__________________________________________________________________________________________________
bn2a_branch2a (BatchNormalizati (None, 119, 119, 64) 256         res2a_branch2a[0][0]
__________________________________________________________________________________________________
activation_145 (Activation)     (None, 119, 119, 64) 0           bn2a_branch2a[0][0]
__________________________________________________________________________________________________
res2a_branch2b (Conv2D)         (None, 119, 119, 64) 36928       activation_145[0][0]
__________________________________________________________________________________________________
bn2a_branch2b (BatchNormalizati (None, 119, 119, 64) 256         res2a_branch2b[0][0]
__________________________________________________________________________________________________
activation_146 (Activation)     (None, 119, 119, 64) 0           bn2a_branch2b[0][0]
__________________________________________________________________________________________________
res2a_branch2c (Conv2D)         (None, 119, 119, 256 16640       activation_146[0][0]
__________________________________________________________________________________________________
res2a_branch1 (Conv2D)          (None, 119, 119, 256 16640       max_pooling2d_6[0][0]
…
bn2a_branch1 (BatchNormalizatio (None, 119, 119, 256 1024        res2a_branch1[0][0]
__________________________________________________________________________________________________
add_41 (Add)                    (None, 119, 119, 256 0           bn2a_branch2c[0][0]
                                                                 bn2a_branch1[0][0]
__________________________________________________________________________________________________
activation_147 (Activation)     (None, 119, 119, 256 0           add_41[0][0]
__________________________________________________________________________________________________
res2b_branch2a (Conv2D)         (None, 119, 119, 64) 16448       activation_147[0][0]
__________________________________________________________________________________________________
bn2b_branch2a (BatchNormalizati (None, 119, 119, 64) 256         res2b_branch2a[0][0]
__________________________________________________________________________________________________
activation_148 (Activation)     (None, 119, 119, 64) 0           bn2b_branch2a[0][0]
__________________________________________________________________________________________________
res2b_branch2b (Conv2D)         (None, 119, 119, 64) 36928       activation_148[0][0]
__________________________________________________________________________________________________
bn2b_branch2b (BatchNormalizati (None, 119, 119, 64) 256         res2b_branch2b[0][0]
__________________________________________________________________________________________________
activation_149 (Activation)     (None, 119, 119, 64) 0           bn2b_branch2b[0][0]
__________________________________________________________________________________________________
res2b_branch2c (Conv2D)         (None, 119, 119, 256 16640       activation_149[0][0]
__________________________________________________________________________________________________
bn2b_branch2c (BatchNormalizati (None, 119, 119, 256 1024        res2b_branch2c[0][0]
…
bn2c_branch2c (BatchNormalizati (None, 119, 119, 256 1024        res2c_branch2c[0][0]
__________________________________________________________________________________________________
add_43 (Add)                    (None, 119, 119, 256 0           bn2c_branch2c[0][0]
                                                                 activation_150[0][0]
__________________________________________________________________________________________________
activation_153 (Activation)     (None, 119, 119, 256 0           add_43[0][0]
__________________________________________________________________________________________________
res3a_branch2a (Conv2D)         (None, 60, 60, 128)  32896       activation_153[0][0]
__________________________________________________________________________________________________
bn3a_branch2a (BatchNormalizati (None, 60, 60, 128)  512         res3a_branch2a[0][0]
__________________________________________________________________________________________________
activation_154 (Activation)     (None, 60, 60, 128)  0           bn3a_branch2a[0][0]
__________________________________________________________________________________________________
res3a_branch2b (Conv2D)         (None, 60, 60, 128)  147584      activation_154[0][0]
__________________________________________________________________________________________________
bn3a_branch2b (BatchNormalizati (None, 60, 60, 128)  512         res3a_branch2b[0][0]
__________________________________________________________________________________________________
activation_155 (Activation)     (None, 60, 60, 128)  0           bn3a_branch2b[0][0]
__________________________________________________________________________________________________
res3a_branch2c (Conv2D)         (None, 60, 60, 512)  66048       activation_155[0][0]
__________________________________________________________________________________________________
res3a_branch1 (Conv2D)          (None, 60, 60, 512)  131584      activation_153[0][0]
__________________________________________________________________________________________________
bn3a_branch2c (BatchNormalizati (None, 60, 60, 512)  2048        res3a_branch2c[0][0]
__________________________________________________________________________________________________
bn3a_branch1 (BatchNormalizatio (None, 60, 60, 512)  2048        res3a_branch1[0][0]
__________________________________________________________________________________________________
add_44 (Add)                    (None, 60, 60, 512)  0           bn3a_branch2c[0][0]
                                                                 bn3a_branch1[0][0]
__________________________________________________________________________________________________
activation_156 (Activation)     (None, 60, 60, 512)  0           add_44[0][0]
__________________________________________________________________________________________________
res3b_branch2a (Conv2D)         (None, 60, 60, 128)  65664       activation_156[0][0]
__________________________________________________________________________________________________
bn3b_branch2a (BatchNormalizati (None, 60, 60, 128)  512         res3b_branch2a[0][0]
__________________________________________________________________________________________________
activation_157 (Activation)     (None, 60, 60, 128)  0           bn3b_branch2a[0][0]
__________________________________________________________________________________________________
res3b_branch2b (Conv2D)         (None, 60, 60, 128)  147584      activation_157[0][0]
__________________________________________________________________________________________________
bn3b_branch2b (BatchNormalizati (None, 60, 60, 128)  512         res3b_branch2b[0][0]
__________________________________________________________________________________________________
activation_158 (Activation)     (None, 60, 60, 128)  0           bn3b_branch2b[0][0]
__________________________________________________________________________________________________
res3b_branch2c (Conv2D)         (None, 60, 60, 512)  66048       activation_158[0][0]
__________________________________________________________________________________________________
bn3b_branch2c (BatchNormalizati (None, 60, 60, 512)  2048        res3b_branch2c[0][0]
__________________________________________________________________________________________________
add_45 (Add)                    (None, 60, 60, 512)  0           bn3b_branch2c[0][0]
                                                                 activation_156[0][0]
__________________________________________________________________________________________________
activation_159 (Activation)     (None, 60, 60, 512)  0           add_45[0][0]
__________________________________________________________________________________________________
res3c_branch2a (Conv2D)         (None, 60, 60, 128)  65664       activation_159[0][0]
__________________________________________________________________________________________________
bn3c_branch2a (BatchNormalizati (None, 60, 60, 128)  512         res3c_branch2a[0][0]
__________________________________________________________________________________________________
activation_160 (Activation)     (None, 60, 60, 128)  0           bn3c_branch2a[0][0]
__________________________________________________________________________________________________
res3c_branch2b (Conv2D)         (None, 60, 60, 128)  147584      activation_160[0][0]
__________________________________________________________________________________________________
bn3c_branch2b (BatchNormalizati (None, 60, 60, 128)  512         res3c_branch2b[0][0]
__________________________________________________________________________________________________
activation_161 (Activation)     (None, 60, 60, 128)  0           bn3c_branch2b[0][0]
__________________________________________________________________________________________________
res3c_branch2c (Conv2D)         (None, 60, 60, 512)  66048       activation_161[0][0]
__________________________________________________________________________________________________
bn3c_branch2c (BatchNormalizati (None, 60, 60, 512)  2048        res3c_branch2c[0][0]
__________________________________________________________________________________________________
add_46 (Add)                    (None, 60, 60, 512)  0           bn3c_branch2c[0][0]
                                                                 activation_159[0][0]
__________________________________________________________________________________________________
activation_162 (Activation)     (None, 60, 60, 512)  0           add_46[0][0]
__________________________________________________________________________________________________
res3d_branch2a (Conv2D)         (None, 60, 60, 128)  65664       activation_162[0][0]
__________________________________________________________________________________________________
bn3d_branch2a (BatchNormalizati (None, 60, 60, 128)  512         res3d_branch2a[0][0]
__________________________________________________________________________________________________
activation_163 (Activation)     (None, 60, 60, 128)  0           bn3d_branch2a[0][0]
__________________________________________________________________________________________________
res3d_branch2b (Conv2D)         (None, 60, 60, 128)  147584      activation_163[0][0]
__________________________________________________________________________________________________
bn3d_branch2b (BatchNormalizati (None, 60, 60, 128)  512         res3d_branch2b[0][0]
__________________________________________________________________________________________________
activation_164 (Activation)     (None, 60, 60, 128)  0           bn3d_branch2b[0][0]
__________________________________________________________________________________________________
res3d_branch2c (Conv2D)         (None, 60, 60, 512)  66048       activation_164[0][0]
__________________________________________________________________________________________________
bn3d_branch2c (BatchNormalizati (None, 60, 60, 512)  2048        res3d_branch2c[0][0]
__________________________________________________________________________________________________
add_47 (Add)                    (None, 60, 60, 512)  0           bn3d_branch2c[0][0]
                                                                 activation_162[0][0]
__________________________________________________________________________________________________
activation_165 (Activation)     (None, 60, 60, 512)  0           add_47[0][0]
__________________________________________________________________________________________________
res4a_branch2a (Conv2D)         (None, 30, 30, 256)  131328      activation_165[0][0]
__________________________________________________________________________________________________
bn4a_branch2a (BatchNormalizati (None, 30, 30, 256)  1024        res4a_branch2a[0][0]
__________________________________________________________________________________________________
activation_166 (Activation)     (None, 30, 30, 256)  0           bn4a_branch2a[0][0]
__________________________________________________________________________________________________
res4a_branch2b (Conv2D)         (None, 30, 30, 256)  590080      activation_166[0][0]
__________________________________________________________________________________________________
bn4a_branch2b (BatchNormalizati (None, 30, 30, 256)  1024        res4a_branch2b[0][0]
__________________________________________________________________________________________________
activation_167 (Activation)     (None, 30, 30, 256)  0           bn4a_branch2b[0][0]
__________________________________________________________________________________________________
res4a_branch2c (Conv2D)         (None, 30, 30, 1024) 263168      activation_167[0][0]
__________________________________________________________________________________________________
res4a_branch1 (Conv2D)          (None, 30, 30, 1024) 525312      activation_165[0][0]
__________________________________________________________________________________________________
bn4a_branch2c (BatchNormalizati (None, 30, 30, 1024) 4096        res4a_branch2c[0][0]
__________________________________________________________________________________________________
bn4a_branch1 (BatchNormalizatio (None, 30, 30, 1024) 4096        res4a_branch1[0][0]
__________________________________________________________________________________________________
add_48 (Add)                    (None, 30, 30, 1024) 0           bn4a_branch2c[0][0]
                                                                 bn4a_branch1[0][0]
__________________________________________________________________________________________________
activation_168 (Activation)     (None, 30, 30, 1024) 0           add_48[0][0]
__________________________________________________________________________________________________
res4b_branch2a (Conv2D)         (None, 30, 30, 256)  262400      activation_168[0][0]
__________________________________________________________________________________________________
bn4b_branch2a (BatchNormalizati (None, 30, 30, 256)  1024        res4b_branch2a[0][0]
__________________________________________________________________________________________________
activation_169 (Activation)     (None, 30, 30, 256)  0           bn4b_branch2a[0][0]
__________________________________________________________________________________________________
res4b_branch2b (Conv2D)         (None, 30, 30, 256)  590080      activation_169[0][0]
__________________________________________________________________________________________________
bn4b_branch2b (BatchNormalizati (None, 30, 30, 256)  1024        res4b_branch2b[0][0]
__________________________________________________________________________________________________
activation_170 (Activation)     (None, 30, 30, 256)  0           bn4b_branch2b[0][0]
__________________________________________________________________________________________________
res4b_branch2c (Conv2D)         (None, 30, 30, 1024) 263168      activation_170[0][0]
__________________________________________________________________________________________________
bn4b_branch2c (BatchNormalizati (None, 30, 30, 1024) 4096        res4b_branch2c[0][0]
__________________________________________________________________________________________________
add_49 (Add)                    (None, 30, 30, 1024) 0           bn4b_branch2c[0][0]
                                                                 activation_168[0][0]
__________________________________________________________________________________________________
activation_171 (Activation)     (None, 30, 30, 1024) 0           add_49[0][0]
__________________________________________________________________________________________________
res4c_branch2a (Conv2D)         (None, 30, 30, 256)  262400      activation_171[0][0]
__________________________________________________________________________________________________
bn4c_branch2a (BatchNormalizati (None, 30, 30, 256)  1024        res4c_branch2a[0][0]
__________________________________________________________________________________________________
activation_172 (Activation)     (None, 30, 30, 256)  0           bn4c_branch2a[0][0]
__________________________________________________________________________________________________
res4c_branch2b (Conv2D)         (None, 30, 30, 256)  590080      activation_172[0][0]
__________________________________________________________________________________________________
bn4c_branch2b (BatchNormalizati (None, 30, 30, 256)  1024        res4c_branch2b[0][0]
__________________________________________________________________________________________________
activation_173 (Activation)     (None, 30, 30, 256)  0           bn4c_branch2b[0][0]
__________________________________________________________________________________________________
res4c_branch2c (Conv2D)         (None, 30, 30, 1024) 263168      activation_173[0][0]
__________________________________________________________________________________________________
bn4c_branch2c (BatchNormalizati (None, 30, 30, 1024) 4096        res4c_branch2c[0][0]
__________________________________________________________________________________________________
add_50 (Add)                    (None, 30, 30, 1024) 0           bn4c_branch2c[0][0]
                                                                 activation_171[0][0]
__________________________________________________________________________________________________
activation_174 (Activation)     (None, 30, 30, 1024) 0           add_50[0][0]
__________________________________________________________________________________________________
res4d_branch2a (Conv2D)         (None, 30, 30, 256)  262400      activation_174[0][0]
__________________________________________________________________________________________________
bn4d_branch2a (BatchNormalizati (None, 30, 30, 256)  1024        res4d_branch2a[0][0]
__________________________________________________________________________________________________
activation_175 (Activation)     (None, 30, 30, 256)  0           bn4d_branch2a[0][0]
__________________________________________________________________________________________________
res4d_branch2b (Conv2D)         (None, 30, 30, 256)  590080      activation_175[0][0]
__________________________________________________________________________________________________
bn4d_branch2b (BatchNormalizati (None, 30, 30, 256)  1024        res4d_branch2b[0][0]
__________________________________________________________________________________________________
activation_176 (Activation)     (None, 30, 30, 256)  0           bn4d_branch2b[0][0]
__________________________________________________________________________________________________
res4d_branch2c (Conv2D)         (None, 30, 30, 1024) 263168      activation_176[0][0]
__________________________________________________________________________________________________
bn4d_branch2c (BatchNormalizati (None, 30, 30, 1024) 4096        res4d_branch2c[0][0]
__________________________________________________________________________________________________
add_51 (Add)                    (None, 30, 30, 1024) 0           bn4d_branch2c[0][0]
                                                                 activation_174[0][0]
__________________________________________________________________________________________________
activation_177 (Activation)     (None, 30, 30, 1024) 0           add_51[0][0]
__________________________________________________________________________________________________
res4e_branch2a (Conv2D)         (None, 30, 30, 256)  262400      activation_177[0][0]
__________________________________________________________________________________________________
bn4e_branch2a (BatchNormalizati (None, 30, 30, 256)  1024        res4e_branch2a[0][0]
__________________________________________________________________________________________________
activation_178 (Activation)     (None, 30, 30, 256)  0           bn4e_branch2a[0][0]
__________________________________________________________________________________________________
res4e_branch2b (Conv2D)         (None, 30, 30, 256)  590080      activation_178[0][0]
__________________________________________________________________________________________________
bn4e_branch2b (BatchNormalizati (None, 30, 30, 256)  1024        res4e_branch2b[0][0]
__________________________________________________________________________________________________
activation_179 (Activation)     (None, 30, 30, 256)  0           bn4e_branch2b[0][0]
__________________________________________________________________________________________________
res4e_branch2c (Conv2D)         (None, 30, 30, 1024) 263168      activation_179[0][0]
__________________________________________________________________________________________________
bn4e_branch2c (BatchNormalizati (None, 30, 30, 1024) 4096        res4e_branch2c[0][0]
__________________________________________________________________________________________________
add_52 (Add)                    (None, 30, 30, 1024) 0           bn4e_branch2c[0][0]
                                                                 activation_177[0][0]
__________________________________________________________________________________________________
activation_180 (Activation)     (None, 30, 30, 1024) 0           add_52[0][0]
__________________________________________________________________________________________________
res4f_branch2a (Conv2D)         (None, 30, 30, 256)  262400      activation_180[0][0]
__________________________________________________________________________________________________
bn4f_branch2a (BatchNormalizati (None, 30, 30, 256)  1024        res4f_branch2a[0][0]
__________________________________________________________________________________________________
activation_181 (Activation)     (None, 30, 30, 256)  0           bn4f_branch2a[0][0]
__________________________________________________________________________________________________
res4f_branch2b (Conv2D)         (None, 30, 30, 256)  590080      activation_181[0][0]
__________________________________________________________________________________________________
bn4f_branch2b (BatchNormalizati (None, 30, 30, 256)  1024        res4f_branch2b[0][0]
__________________________________________________________________________________________________
activation_182 (Activation)     (None, 30, 30, 256)  0           bn4f_branch2b[0][0]
__________________________________________________________________________________________________
res4f_branch2c (Conv2D)         (None, 30, 30, 1024) 263168      activation_182[0][0]
__________________________________________________________________________________________________
bn4f_branch2c (BatchNormalizati (None, 30, 30, 1024) 4096        res4f_branch2c[0][0]
__________________________________________________________________________________________________
add_53 (Add)                    (None, 30, 30, 1024) 0           bn4f_branch2c[0][0]
                                                                 activation_180[0][0]
__________________________________________________________________________________________________
activation_183 (Activation)     (None, 30, 30, 1024) 0           add_53[0][0]
__________________________________________________________________________________________________
res5a_branch2a (Conv2D)         (None, 15, 15, 512)  524800      activation_183[0][0]
__________________________________________________________________________________________________
bn5a_branch2a (BatchNormalizati (None, 15, 15, 512)  2048        res5a_branch2a[0][0]
__________________________________________________________________________________________________
activation_184 (Activation)     (None, 15, 15, 512)  0           bn5a_branch2a[0][0]
__________________________________________________________________________________________________
res5a_branch2b (Conv2D)         (None, 15, 15, 512)  2359808     activation_184[0][0]
__________________________________________________________________________________________________
bn5a_branch2b (BatchNormalizati (None, 15, 15, 512)  2048        res5a_branch2b[0][0]
__________________________________________________________________________________________________
activation_185 (Activation)     (None, 15, 15, 512)  0           bn5a_branch2b[0][0]
__________________________________________________________________________________________________
res5a_branch2c (Conv2D)         (None, 15, 15, 2048) 1050624     activation_185[0][0]
__________________________________________________________________________________________________
res5a_branch1 (Conv2D)          (None, 15, 15, 2048) 2099200     activation_183[0][0]
__________________________________________________________________________________________________
bn5a_branch2c (BatchNormalizati (None, 15, 15, 2048) 8192        res5a_branch2c[0][0]
__________________________________________________________________________________________________
bn5a_branch1 (BatchNormalizatio (None, 15, 15, 2048) 8192        res5a_branch1[0][0]
__________________________________________________________________________________________________
add_54 (Add)                    (None, 15, 15, 2048) 0           bn5a_branch2c[0][0]
                                                                 bn5a_branch1[0][0]
__________________________________________________________________________________________________
activation_186 (Activation)     (None, 15, 15, 2048) 0           add_54[0][0]
__________________________________________________________________________________________________
res5b_branch2a (Conv2D)         (None, 15, 15, 512)  1049088     activation_186[0][0]
__________________________________________________________________________________________________
bn5b_branch2a (BatchNormalizati (None, 15, 15, 512)  2048        res5b_branch2a[0][0]
__________________________________________________________________________________________________
activation_187 (Activation)     (None, 15, 15, 512)  0           bn5b_branch2a[0][0]
__________________________________________________________________________________________________
res5b_branch2b (Conv2D)         (None, 15, 15, 512)  2359808     activation_187[0][0]
__________________________________________________________________________________________________
bn5b_branch2b (BatchNormalizati (None, 15, 15, 512)  2048        res5b_branch2b[0][0]
__________________________________________________________________________________________________
activation_188 (Activation)     (None, 15, 15, 512)  0           bn5b_branch2b[0][0]
__________________________________________________________________________________________________
res5b_branch2c (Conv2D)         (None, 15, 15, 2048) 1050624     activation_188[0][0]
__________________________________________________________________________________________________
bn5b_branch2c (BatchNormalizati (None, 15, 15, 2048) 8192        res5b_branch2c[0][0]
__________________________________________________________________________________________________
add_55 (Add)                    (None, 15, 15, 2048) 0           bn5b_branch2c[0][0]
                                                                 activation_186[0][0]
__________________________________________________________________________________________________
activation_189 (Activation)     (None, 15, 15, 2048) 0           add_55[0][0]
__________________________________________________________________________________________________
res5c_branch2a (Conv2D)         (None, 15, 15, 512)  1049088     activation_189[0][0]
__________________________________________________________________________________________________
bn5c_branch2a (BatchNormalizati (None, 15, 15, 512)  2048        res5c_branch2a[0][0]
__________________________________________________________________________________________________
activation_190 (Activation)     (None, 15, 15, 512)  0           bn5c_branch2a[0][0]
__________________________________________________________________________________________________
res5c_branch2b (Conv2D)         (None, 15, 15, 512)  2359808     activation_190[0][0]
__________________________________________________________________________________________________
bn5c_branch2b (BatchNormalizati (None, 15, 15, 512)  2048        res5c_branch2b[0][0]
__________________________________________________________________________________________________
activation_191 (Activation)     (None, 15, 15, 512)  0           bn5c_branch2b[0][0]
__________________________________________________________________________________________________
res5c_branch2c (Conv2D)         (None, 15, 15, 2048) 1050624     activation_191[0][0]
__________________________________________________________________________________________________
bn5c_branch2c (BatchNormalizati (None, 15, 15, 2048) 8192        res5c_branch2c[0][0]
__________________________________________________________________________________________________
add_56 (Add)                    (None, 15, 15, 2048) 0           bn5c_branch2c[0][0]
                                                                 activation_189[0][0]
__________________________________________________________________________________________________
activation_192 (Activation)     (None, 15, 15, 2048) 0           add_56[0][0]
__________________________________________________________________________________________________
global_average_pooling2d_5 (Glo (None, 2048)         0           activation_192[0][0]
==================================================================================================
Total params: 23,587,712
Trainable params: 23,534,592
Non-trainable params: 53,120
__________________________________________________________________________________________________
257/257 [==============================] - 316s 1s/step
73/73 [==============================] - 91s 1s/step
__________________________________________________________________________________________________
Layer (type)                    Output Shape         Param #     Connected to
==================================================================================================
input_6 (InputLayer)            (None, 480, 480, 3)  0
__________________________________________________________________________________________________
lambda_12 (Lambda)              (None, 480, 480, 3)  0           input_6[0][0]
__________________________________________________________________________________________________
conv2d_103 (Conv2D)             (None, 239, 239, 32) 864         lambda_12[0][0]
__________________________________________________________________________________________________
batch_normalization_103 (BatchN (None, 239, 239, 32) 96          conv2d_103[0][0]
__________________________________________________________________________________________________
activation_193 (Activation)     (None, 239, 239, 32) 0           batch_normalization_103[0][0]
__________________________________________________________________________________________________
conv2d_104 (Conv2D)             (None, 237, 237, 32) 9216        activation_193[0][0]
__________________________________________________________________________________________________
batch_normalization_104 (BatchN (None, 237, 237, 32) 96          conv2d_104[0][0]
__________________________________________________________________________________________________
activation_194 (Activation)     (None, 237, 237, 32) 0           batch_normalization_104[0][0]
__________________________________________________________________________________________________
conv2d_105 (Conv2D)             (None, 237, 237, 64) 18432       activation_194[0][0]
__________________________________________________________________________________________________
batch_normalization_105 (BatchN (None, 237, 237, 64) 192         conv2d_105[0][0]
__________________________________________________________________________________________________
activation_195 (Activation)     (None, 237, 237, 64) 0           batch_normalization_105[0][0]
__________________________________________________________________________________________________
max_pooling2d_7 (MaxPooling2D)  (None, 118, 118, 64) 0           activation_195[0][0]
__________________________________________________________________________________________________
conv2d_106 (Conv2D)             (None, 118, 118, 80) 5120        max_pooling2d_7[0][0]
__________________________________________________________________________________________________
batch_normalization_106 (BatchN (None, 118, 118, 80) 240         conv2d_106[0][0]
__________________________________________________________________________________________________
activation_196 (Activation)     (None, 118, 118, 80) 0           batch_normalization_106[0][0]
__________________________________________________________________________________________________
conv2d_107 (Conv2D)             (None, 116, 116, 192 138240      activation_196[0][0]
__________________________________________________________________________________________________
batch_normalization_107 (BatchN (None, 116, 116, 192 576         conv2d_107[0][0]
__________________________________________________________________________________________________
activation_197 (Activation)     (None, 116, 116, 192 0           batch_normalization_107[0][0]
__________________________________________________________________________________________________
max_pooling2d_8 (MaxPooling2D)  (None, 57, 57, 192)  0           activation_197[0][0]
__________________________________________________________________________________________________
conv2d_111 (Conv2D)             (None, 57, 57, 64)   12288       max_pooling2d_8[0][0]
__________________________________________________________________________________________________
batch_normalization_111 (BatchN (None, 57, 57, 64)   192         conv2d_111[0][0]
__________________________________________________________________________________________________
activation_201 (Activation)     (None, 57, 57, 64)   0           batch_normalization_111[0][0]
__________________________________________________________________________________________________
conv2d_109 (Conv2D)             (None, 57, 57, 48)   9216        max_pooling2d_8[0][0]
__________________________________________________________________________________________________
conv2d_112 (Conv2D)             (None, 57, 57, 96)   55296       activation_201[0][0]
__________________________________________________________________________________________________
batch_normalization_109 (BatchN (None, 57, 57, 48)   144         conv2d_109[0][0]
__________________________________________________________________________________________________
batch_normalization_112 (BatchN (None, 57, 57, 96)   288         conv2d_112[0][0]
__________________________________________________________________________________________________
activation_199 (Activation)     (None, 57, 57, 48)   0           batch_normalization_109[0][0]
__________________________________________________________________________________________________
activation_202 (Activation)     (None, 57, 57, 96)   0           batch_normalization_112[0][0]
__________________________________________________________________________________________________
average_pooling2d_10 (AveragePo (None, 57, 57, 192)  0           max_pooling2d_8[0][0]
__________________________________________________________________________________________________
conv2d_108 (Conv2D)             (None, 57, 57, 64)   12288       max_pooling2d_8[0][0]
__________________________________________________________________________________________________
conv2d_110 (Conv2D)             (None, 57, 57, 64)   76800       activation_199[0][0]
__________________________________________________________________________________________________
conv2d_113 (Conv2D)             (None, 57, 57, 96)   82944       activation_202[0][0]
__________________________________________________________________________________________________
conv2d_114 (Conv2D)             (None, 57, 57, 32)   6144        average_pooling2d_10[0][0]
__________________________________________________________________________________________________
batch_normalization_108 (BatchN (None, 57, 57, 64)   192         conv2d_108[0][0]
__________________________________________________________________________________________________
batch_normalization_110 (BatchN (None, 57, 57, 64)   192         conv2d_110[0][0]
__________________________________________________________________________________________________
batch_normalization_113 (BatchN (None, 57, 57, 96)   288         conv2d_113[0][0]
__________________________________________________________________________________________________
batch_normalization_114 (BatchN (None, 57, 57, 32)   96          conv2d_114[0][0]
__________________________________________________________________________________________________
activation_198 (Activation)     (None, 57, 57, 64)   0           batch_normalization_108[0][0]
__________________________________________________________________________________________________
activation_200 (Activation)     (None, 57, 57, 64)   0           batch_normalization_110[0][0]
__________________________________________________________________________________________________
activation_203 (Activation)     (None, 57, 57, 96)   0           batch_normalization_113[0][0]
__________________________________________________________________________________________________
activation_204 (Activation)     (None, 57, 57, 32)   0           batch_normalization_114[0][0]
__________________________________________________________________________________________________
mixed0 (Concatenate)            (None, 57, 57, 256)  0           activation_198[0][0]
                                                                 activation_200[0][0]
                                                                 activation_203[0][0]
                                                                 activation_204[0][0]
__________________________________________________________________________________________________
conv2d_118 (Conv2D)             (None, 57, 57, 64)   16384       mixed0[0][0]
__________________________________________________________________________________________________
batch_normalization_118 (BatchN (None, 57, 57, 64)   192         conv2d_118[0][0]
__________________________________________________________________________________________________
activation_208 (Activation)     (None, 57, 57, 64)   0           batch_normalization_118[0][0]
__________________________________________________________________________________________________
conv2d_116 (Conv2D)             (None, 57, 57, 48)   12288       mixed0[0][0]
__________________________________________________________________________________________________
conv2d_119 (Conv2D)             (None, 57, 57, 96)   55296       activation_208[0][0]
__________________________________________________________________________________________________
batch_normalization_116 (BatchN (None, 57, 57, 48)   144         conv2d_116[0][0]
__________________________________________________________________________________________________
batch_normalization_119 (BatchN (None, 57, 57, 96)   288         conv2d_119[0][0]
__________________________________________________________________________________________________
activation_206 (Activation)     (None, 57, 57, 48)   0           batch_normalization_116[0][0]
__________________________________________________________________________________________________
activation_209 (Activation)     (None, 57, 57, 96)   0           batch_normalization_119[0][0]
__________________________________________________________________________________________________
average_pooling2d_11 (AveragePo (None, 57, 57, 256)  0           mixed0[0][0]
__________________________________________________________________________________________________
conv2d_115 (Conv2D)             (None, 57, 57, 64)   16384       mixed0[0][0]
__________________________________________________________________________________________________
conv2d_117 (Conv2D)             (None, 57, 57, 64)   76800       activation_206[0][0]
__________________________________________________________________________________________________
conv2d_120 (Conv2D)             (None, 57, 57, 96)   82944       activation_209[0][0]
__________________________________________________________________________________________________
conv2d_121 (Conv2D)             (None, 57, 57, 64)   16384       average_pooling2d_11[0][0]
__________________________________________________________________________________________________
batch_normalization_115 (BatchN (None, 57, 57, 64)   192         conv2d_115[0][0]
__________________________________________________________________________________________________
batch_normalization_117 (BatchN (None, 57, 57, 64)   192         conv2d_117[0][0]
__________________________________________________________________________________________________
batch_normalization_120 (BatchN (None, 57, 57, 96)   288         conv2d_120[0][0]
__________________________________________________________________________________________________
batch_normalization_121 (BatchN (None, 57, 57, 64)   192         conv2d_121[0][0]
__________________________________________________________________________________________________
activation_205 (Activation)     (None, 57, 57, 64)   0           batch_normalization_115[0][0]
__________________________________________________________________________________________________
activation_207 (Activation)     (None, 57, 57, 64)   0           batch_normalization_117[0][0]
__________________________________________________________________________________________________
activation_210 (Activation)     (None, 57, 57, 96)   0           batch_normalization_120[0][0]
__________________________________________________________________________________________________
activation_211 (Activation)     (None, 57, 57, 64)   0           batch_normalization_121[0][0]
__________________________________________________________________________________________________
mixed1 (Concatenate)            (None, 57, 57, 288)  0           activation_205[0][0]
                                                                 activation_207[0][0]
                                                                 activation_210[0][0]
                                                                 activation_211[0][0]
__________________________________________________________________________________________________
conv2d_125 (Conv2D)             (None, 57, 57, 64)   18432       mixed1[0][0]
__________________________________________________________________________________________________
batch_normalization_125 (BatchN (None, 57, 57, 64)   192         conv2d_125[0][0]
__________________________________________________________________________________________________
activation_215 (Activation)     (None, 57, 57, 64)   0           batch_normalization_125[0][0]
__________________________________________________________________________________________________
conv2d_123 (Conv2D)             (None, 57, 57, 48)   13824       mixed1[0][0]
__________________________________________________________________________________________________
conv2d_126 (Conv2D)             (None, 57, 57, 96)   55296       activation_215[0][0]
__________________________________________________________________________________________________
batch_normalization_123 (BatchN (None, 57, 57, 48)   144         conv2d_123[0][0]
__________________________________________________________________________________________________
batch_normalization_126 (BatchN (None, 57, 57, 96)   288         conv2d_126[0][0]
__________________________________________________________________________________________________
activation_213 (Activation)     (None, 57, 57, 48)   0           batch_normalization_123[0][0]
__________________________________________________________________________________________________
activation_216 (Activation)     (None, 57, 57, 96)   0           batch_normalization_126[0][0]
__________________________________________________________________________________________________
average_pooling2d_12 (AveragePo (None, 57, 57, 288)  0           mixed1[0][0]
__________________________________________________________________________________________________
conv2d_122 (Conv2D)             (None, 57, 57, 64)   18432       mixed1[0][0]
__________________________________________________________________________________________________
conv2d_124 (Conv2D)             (None, 57, 57, 64)   76800       activation_213[0][0]
__________________________________________________________________________________________________
conv2d_127 (Conv2D)             (None, 57, 57, 96)   82944       activation_216[0][0]
__________________________________________________________________________________________________
conv2d_128 (Conv2D)             (None, 57, 57, 64)   18432       average_pooling2d_12[0][0]
__________________________________________________________________________________________________
batch_normalization_122 (BatchN (None, 57, 57, 64)   192         conv2d_122[0][0]
__________________________________________________________________________________________________
batch_normalization_124 (BatchN (None, 57, 57, 64)   192         conv2d_124[0][0]
__________________________________________________________________________________________________
batch_normalization_127 (BatchN (None, 57, 57, 96)   288         conv2d_127[0][0]
__________________________________________________________________________________________________
batch_normalization_128 (BatchN (None, 57, 57, 64)   192         conv2d_128[0][0]
__________________________________________________________________________________________________
activation_212 (Activation)     (None, 57, 57, 64)   0           batch_normalization_122[0][0]
__________________________________________________________________________________________________
activation_214 (Activation)     (None, 57, 57, 64)   0           batch_normalization_124[0][0]
__________________________________________________________________________________________________
activation_217 (Activation)     (None, 57, 57, 96)   0           batch_normalization_127[0][0]
__________________________________________________________________________________________________
activation_218 (Activation)     (None, 57, 57, 64)   0           batch_normalization_128[0][0]
__________________________________________________________________________________________________
mixed2 (Concatenate)            (None, 57, 57, 288)  0           activation_212[0][0]
                                                                 activation_214[0][0]
                                                                 activation_217[0][0]
                                                                 activation_218[0][0]
__________________________________________________________________________________________________
conv2d_130 (Conv2D)             (None, 57, 57, 64)   18432       mixed2[0][0]
__________________________________________________________________________________________________
batch_normalization_130 (BatchN (None, 57, 57, 64)   192         conv2d_130[0][0]
__________________________________________________________________________________________________
activation_220 (Activation)     (None, 57, 57, 64)   0           batch_normalization_130[0][0]
__________________________________________________________________________________________________
conv2d_131 (Conv2D)             (None, 57, 57, 96)   55296       activation_220[0][0]
__________________________________________________________________________________________________
batch_normalization_131 (BatchN (None, 57, 57, 96)   288         conv2d_131[0][0]
__________________________________________________________________________________________________
activation_221 (Activation)     (None, 57, 57, 96)   0           batch_normalization_131[0][0]
__________________________________________________________________________________________________
conv2d_129 (Conv2D)             (None, 28, 28, 384)  995328      mixed2[0][0]
__________________________________________________________________________________________________
conv2d_132 (Conv2D)             (None, 28, 28, 96)   82944       activation_221[0][0]
__________________________________________________________________________________________________
batch_normalization_129 (BatchN (None, 28, 28, 384)  1152        conv2d_129[0][0]
__________________________________________________________________________________________________
batch_normalization_132 (BatchN (None, 28, 28, 96)   288         conv2d_132[0][0]
__________________________________________________________________________________________________
activation_219 (Activation)     (None, 28, 28, 384)  0           batch_normalization_129[0][0]
__________________________________________________________________________________________________
activation_222 (Activation)     (None, 28, 28, 96)   0           batch_normalization_132[0][0]
__________________________________________________________________________________________________
max_pooling2d_9 (MaxPooling2D)  (None, 28, 28, 288)  0           mixed2[0][0]
__________________________________________________________________________________________________
mixed3 (Concatenate)            (None, 28, 28, 768)  0           activation_219[0][0]
                                                                 activation_222[0][0]
                                                                 max_pooling2d_9[0][0]
__________________________________________________________________________________________________
conv2d_137 (Conv2D)             (None, 28, 28, 128)  98304       mixed3[0][0]
__________________________________________________________________________________________________
batch_normalization_137 (BatchN (None, 28, 28, 128)  384         conv2d_137[0][0]
__________________________________________________________________________________________________
activation_227 (Activation)     (None, 28, 28, 128)  0           batch_normalization_137[0][0]
__________________________________________________________________________________________________
conv2d_138 (Conv2D)             (None, 28, 28, 128)  114688      activation_227[0][0]
__________________________________________________________________________________________________
batch_normalization_138 (BatchN (None, 28, 28, 128)  384         conv2d_138[0][0]
__________________________________________________________________________________________________
activation_228 (Activation)     (None, 28, 28, 128)  0           batch_normalization_138[0][0]
__________________________________________________________________________________________________
conv2d_134 (Conv2D)             (None, 28, 28, 128)  98304       mixed3[0][0]
__________________________________________________________________________________________________
conv2d_139 (Conv2D)             (None, 28, 28, 128)  114688      activation_228[0][0]
__________________________________________________________________________________________________
batch_normalization_134 (BatchN (None, 28, 28, 128)  384         conv2d_134[0][0]
__________________________________________________________________________________________________
batch_normalization_139 (BatchN (None, 28, 28, 128)  384         conv2d_139[0][0]
__________________________________________________________________________________________________
activation_224 (Activation)     (None, 28, 28, 128)  0           batch_normalization_134[0][0]
__________________________________________________________________________________________________
activation_229 (Activation)     (None, 28, 28, 128)  0           batch_normalization_139[0][0]
__________________________________________________________________________________________________
conv2d_135 (Conv2D)             (None, 28, 28, 128)  114688      activation_224[0][0]
__________________________________________________________________________________________________
conv2d_140 (Conv2D)             (None, 28, 28, 128)  114688      activation_229[0][0]
__________________________________________________________________________________________________
batch_normalization_135 (BatchN (None, 28, 28, 128)  384         conv2d_135[0][0]
__________________________________________________________________________________________________
batch_normalization_140 (BatchN (None, 28, 28, 128)  384         conv2d_140[0][0]
__________________________________________________________________________________________________
activation_225 (Activation)     (None, 28, 28, 128)  0           batch_normalization_135[0][0]
__________________________________________________________________________________________________
activation_230 (Activation)     (None, 28, 28, 128)  0           batch_normalization_140[0][0]
__________________________________________________________________________________________________
average_pooling2d_13 (AveragePo (None, 28, 28, 768)  0           mixed3[0][0]
__________________________________________________________________________________________________
conv2d_133 (Conv2D)             (None, 28, 28, 192)  147456      mixed3[0][0]
__________________________________________________________________________________________________
conv2d_136 (Conv2D)             (None, 28, 28, 192)  172032      activation_225[0][0]
__________________________________________________________________________________________________
conv2d_141 (Conv2D)             (None, 28, 28, 192)  172032      activation_230[0][0]
__________________________________________________________________________________________________
conv2d_142 (Conv2D)             (None, 28, 28, 192)  147456      average_pooling2d_13[0][0]
__________________________________________________________________________________________________
batch_normalization_133 (BatchN (None, 28, 28, 192)  576         conv2d_133[0][0]
__________________________________________________________________________________________________
batch_normalization_136 (BatchN (None, 28, 28, 192)  576         conv2d_136[0][0]
__________________________________________________________________________________________________
batch_normalization_141 (BatchN (None, 28, 28, 192)  576         conv2d_141[0][0]
__________________________________________________________________________________________________
batch_normalization_142 (BatchN (None, 28, 28, 192)  576         conv2d_142[0][0]
__________________________________________________________________________________________________
activation_223 (Activation)     (None, 28, 28, 192)  0           batch_normalization_133[0][0]
__________________________________________________________________________________________________
activation_226 (Activation)     (None, 28, 28, 192)  0           batch_normalization_136[0][0]
__________________________________________________________________________________________________
activation_231 (Activation)     (None, 28, 28, 192)  0           batch_normalization_141[0][0]
__________________________________________________________________________________________________
activation_232 (Activation)     (None, 28, 28, 192)  0           batch_normalization_142[0][0]
__________________________________________________________________________________________________
mixed4 (Concatenate)            (None, 28, 28, 768)  0           activation_223[0][0]
                                                                 activation_226[0][0]
                                                                 activation_231[0][0]
                                                                 activation_232[0][0]
__________________________________________________________________________________________________
conv2d_147 (Conv2D)             (None, 28, 28, 160)  122880      mixed4[0][0]
__________________________________________________________________________________________________
batch_normalization_147 (BatchN (None, 28, 28, 160)  480         conv2d_147[0][0]
__________________________________________________________________________________________________
activation_237 (Activation)     (None, 28, 28, 160)  0           batch_normalization_147[0][0]
__________________________________________________________________________________________________
conv2d_148 (Conv2D)             (None, 28, 28, 160)  179200      activation_237[0][0]
__________________________________________________________________________________________________
batch_normalization_148 (BatchN (None, 28, 28, 160)  480         conv2d_148[0][0]
__________________________________________________________________________________________________
activation_238 (Activation)     (None, 28, 28, 160)  0           batch_normalization_148[0][0]
__________________________________________________________________________________________________
conv2d_144 (Conv2D)             (None, 28, 28, 160)  122880      mixed4[0][0]
__________________________________________________________________________________________________
conv2d_149 (Conv2D)             (None, 28, 28, 160)  179200      activation_238[0][0]
__________________________________________________________________________________________________
batch_normalization_144 (BatchN (None, 28, 28, 160)  480         conv2d_144[0][0]
__________________________________________________________________________________________________
batch_normalization_149 (BatchN (None, 28, 28, 160)  480         conv2d_149[0][0]
__________________________________________________________________________________________________
activation_234 (Activation)     (None, 28, 28, 160)  0           batch_normalization_144[0][0]
__________________________________________________________________________________________________
activation_239 (Activation)     (None, 28, 28, 160)  0           batch_normalization_149[0][0]
__________________________________________________________________________________________________
conv2d_145 (Conv2D)             (None, 28, 28, 160)  179200      activation_234[0][0]
__________________________________________________________________________________________________
conv2d_150 (Conv2D)             (None, 28, 28, 160)  179200      activation_239[0][0]
__________________________________________________________________________________________________
batch_normalization_145 (BatchN (None, 28, 28, 160)  480         conv2d_145[0][0]
__________________________________________________________________________________________________
batch_normalization_150 (BatchN (None, 28, 28, 160)  480         conv2d_150[0][0]
__________________________________________________________________________________________________
activation_235 (Activation)     (None, 28, 28, 160)  0           batch_normalization_145[0][0]
__________________________________________________________________________________________________
activation_240 (Activation)     (None, 28, 28, 160)  0           batch_normalization_150[0][0]
__________________________________________________________________________________________________
average_pooling2d_14 (AveragePo (None, 28, 28, 768)  0           mixed4[0][0]
__________________________________________________________________________________________________
conv2d_143 (Conv2D)             (None, 28, 28, 192)  147456      mixed4[0][0]
__________________________________________________________________________________________________
conv2d_146 (Conv2D)             (None, 28, 28, 192)  215040      activation_235[0][0]
__________________________________________________________________________________________________
conv2d_151 (Conv2D)             (None, 28, 28, 192)  215040      activation_240[0][0]
__________________________________________________________________________________________________
conv2d_152 (Conv2D)             (None, 28, 28, 192)  147456      average_pooling2d_14[0][0]
__________________________________________________________________________________________________
batch_normalization_143 (BatchN (None, 28, 28, 192)  576         conv2d_143[0][0]
__________________________________________________________________________________________________
batch_normalization_146 (BatchN (None, 28, 28, 192)  576         conv2d_146[0][0]
__________________________________________________________________________________________________
batch_normalization_151 (BatchN (None, 28, 28, 192)  576         conv2d_151[0][0]
__________________________________________________________________________________________________
batch_normalization_152 (BatchN (None, 28, 28, 192)  576         conv2d_152[0][0]
__________________________________________________________________________________________________
activation_233 (Activation)     (None, 28, 28, 192)  0           batch_normalization_143[0][0]
__________________________________________________________________________________________________
activation_236 (Activation)     (None, 28, 28, 192)  0           batch_normalization_146[0][0]
__________________________________________________________________________________________________
activation_241 (Activation)     (None, 28, 28, 192)  0           batch_normalization_151[0][0]
__________________________________________________________________________________________________
activation_242 (Activation)     (None, 28, 28, 192)  0           batch_normalization_152[0][0]
__________________________________________________________________________________________________
mixed5 (Concatenate)            (None, 28, 28, 768)  0           activation_233[0][0]
                                                                 activation_236[0][0]
                                                                 activation_241[0][0]
                                                                 activation_242[0][0]
__________________________________________________________________________________________________
conv2d_157 (Conv2D)             (None, 28, 28, 160)  122880      mixed5[0][0]
__________________________________________________________________________________________________
batch_normalization_157 (BatchN (None, 28, 28, 160)  480         conv2d_157[0][0]
__________________________________________________________________________________________________
activation_247 (Activation)     (None, 28, 28, 160)  0           batch_normalization_157[0][0]
__________________________________________________________________________________________________
conv2d_158 (Conv2D)             (None, 28, 28, 160)  179200      activation_247[0][0]
__________________________________________________________________________________________________
batch_normalization_158 (BatchN (None, 28, 28, 160)  480         conv2d_158[0][0]
__________________________________________________________________________________________________
activation_248 (Activation)     (None, 28, 28, 160)  0           batch_normalization_158[0][0]
__________________________________________________________________________________________________
conv2d_154 (Conv2D)             (None, 28, 28, 160)  122880      mixed5[0][0]
__________________________________________________________________________________________________
conv2d_159 (Conv2D)             (None, 28, 28, 160)  179200      activation_248[0][0]
__________________________________________________________________________________________________
batch_normalization_154 (BatchN (None, 28, 28, 160)  480         conv2d_154[0][0]
__________________________________________________________________________________________________
batch_normalization_159 (BatchN (None, 28, 28, 160)  480         conv2d_159[0][0]
__________________________________________________________________________________________________
activation_244 (Activation)     (None, 28, 28, 160)  0           batch_normalization_154[0][0]
__________________________________________________________________________________________________
activation_249 (Activation)     (None, 28, 28, 160)  0           batch_normalization_159[0][0]
__________________________________________________________________________________________________
conv2d_155 (Conv2D)             (None, 28, 28, 160)  179200      activation_244[0][0]
__________________________________________________________________________________________________
conv2d_160 (Conv2D)             (None, 28, 28, 160)  179200      activation_249[0][0]
__________________________________________________________________________________________________
batch_normalization_155 (BatchN (None, 28, 28, 160)  480         conv2d_155[0][0]
__________________________________________________________________________________________________
batch_normalization_160 (BatchN (None, 28, 28, 160)  480         conv2d_160[0][0]
__________________________________________________________________________________________________
activation_245 (Activation)     (None, 28, 28, 160)  0           batch_normalization_155[0][0]
__________________________________________________________________________________________________
activation_250 (Activation)     (None, 28, 28, 160)  0           batch_normalization_160[0][0]
__________________________________________________________________________________________________
average_pooling2d_15 (AveragePo (None, 28, 28, 768)  0           mixed5[0][0]
__________________________________________________________________________________________________
conv2d_153 (Conv2D)             (None, 28, 28, 192)  147456      mixed5[0][0]
__________________________________________________________________________________________________
conv2d_156 (Conv2D)             (None, 28, 28, 192)  215040      activation_245[0][0]
__________________________________________________________________________________________________
conv2d_161 (Conv2D)             (None, 28, 28, 192)  215040      activation_250[0][0]
__________________________________________________________________________________________________
conv2d_162 (Conv2D)             (None, 28, 28, 192)  147456      average_pooling2d_15[0][0]
__________________________________________________________________________________________________
batch_normalization_153 (BatchN (None, 28, 28, 192)  576         conv2d_153[0][0]
__________________________________________________________________________________________________
batch_normalization_156 (BatchN (None, 28, 28, 192)  576         conv2d_156[0][0]
__________________________________________________________________________________________________
batch_normalization_161 (BatchN (None, 28, 28, 192)  576         conv2d_161[0][0]
__________________________________________________________________________________________________
batch_normalization_162 (BatchN (None, 28, 28, 192)  576         conv2d_162[0][0]
__________________________________________________________________________________________________
activation_243 (Activation)     (None, 28, 28, 192)  0           batch_normalization_153[0][0]
__________________________________________________________________________________________________
activation_246 (Activation)     (None, 28, 28, 192)  0           batch_normalization_156[0][0]
__________________________________________________________________________________________________
activation_251 (Activation)     (None, 28, 28, 192)  0           batch_normalization_161[0][0]
__________________________________________________________________________________________________
activation_252 (Activation)     (None, 28, 28, 192)  0           batch_normalization_162[0][0]
__________________________________________________________________________________________________
mixed6 (Concatenate)            (None, 28, 28, 768)  0           activation_243[0][0]
                                                                 activation_246[0][0]
                                                                 activation_251[0][0]
                                                                 activation_252[0][0]
__________________________________________________________________________________________________
conv2d_167 (Conv2D)             (None, 28, 28, 192)  147456      mixed6[0][0]
__________________________________________________________________________________________________
batch_normalization_167 (BatchN (None, 28, 28, 192)  576         conv2d_167[0][0]
__________________________________________________________________________________________________
activation_257 (Activation)     (None, 28, 28, 192)  0           batch_normalization_167[0][0]
__________________________________________________________________________________________________
conv2d_168 (Conv2D)             (None, 28, 28, 192)  258048      activation_257[0][0]
__________________________________________________________________________________________________
batch_normalization_168 (BatchN (None, 28, 28, 192)  576         conv2d_168[0][0]
__________________________________________________________________________________________________
activation_258 (Activation)     (None, 28, 28, 192)  0           batch_normalization_168[0][0]
__________________________________________________________________________________________________
conv2d_164 (Conv2D)             (None, 28, 28, 192)  147456      mixed6[0][0]
__________________________________________________________________________________________________
conv2d_169 (Conv2D)             (None, 28, 28, 192)  258048      activation_258[0][0]
__________________________________________________________________________________________________
batch_normalization_164 (BatchN (None, 28, 28, 192)  576         conv2d_164[0][0]
__________________________________________________________________________________________________
batch_normalization_169 (BatchN (None, 28, 28, 192)  576         conv2d_169[0][0]
__________________________________________________________________________________________________
activation_254 (Activation)     (None, 28, 28, 192)  0           batch_normalization_164[0][0]
__________________________________________________________________________________________________
activation_259 (Activation)     (None, 28, 28, 192)  0           batch_normalization_169[0][0]
__________________________________________________________________________________________________
conv2d_165 (Conv2D)             (None, 28, 28, 192)  258048      activation_254[0][0]
__________________________________________________________________________________________________
conv2d_170 (Conv2D)             (None, 28, 28, 192)  258048      activation_259[0][0]
__________________________________________________________________________________________________
batch_normalization_165 (BatchN (None, 28, 28, 192)  576         conv2d_165[0][0]
__________________________________________________________________________________________________
batch_normalization_170 (BatchN (None, 28, 28, 192)  576         conv2d_170[0][0]
__________________________________________________________________________________________________
activation_255 (Activation)     (None, 28, 28, 192)  0           batch_normalization_165[0][0]
__________________________________________________________________________________________________
activation_260 (Activation)     (None, 28, 28, 192)  0           batch_normalization_170[0][0]
__________________________________________________________________________________________________
average_pooling2d_16 (AveragePo (None, 28, 28, 768)  0           mixed6[0][0]
__________________________________________________________________________________________________
conv2d_163 (Conv2D)             (None, 28, 28, 192)  147456      mixed6[0][0]
__________________________________________________________________________________________________
conv2d_166 (Conv2D)             (None, 28, 28, 192)  258048      activation_255[0][0]
__________________________________________________________________________________________________
conv2d_171 (Conv2D)             (None, 28, 28, 192)  258048      activation_260[0][0]
__________________________________________________________________________________________________
conv2d_172 (Conv2D)             (None, 28, 28, 192)  147456      average_pooling2d_16[0][0]
__________________________________________________________________________________________________
batch_normalization_163 (BatchN (None, 28, 28, 192)  576         conv2d_163[0][0]
__________________________________________________________________________________________________
batch_normalization_166 (BatchN (None, 28, 28, 192)  576         conv2d_166[0][0]
__________________________________________________________________________________________________
batch_normalization_171 (BatchN (None, 28, 28, 192)  576         conv2d_171[0][0]
__________________________________________________________________________________________________
batch_normalization_172 (BatchN (None, 28, 28, 192)  576         conv2d_172[0][0]
__________________________________________________________________________________________________
activation_253 (Activation)     (None, 28, 28, 192)  0           batch_normalization_163[0][0]
__________________________________________________________________________________________________
activation_256 (Activation)     (None, 28, 28, 192)  0           batch_normalization_166[0][0]
__________________________________________________________________________________________________
activation_261 (Activation)     (None, 28, 28, 192)  0           batch_normalization_171[0][0]
__________________________________________________________________________________________________
activation_262 (Activation)     (None, 28, 28, 192)  0           batch_normalization_172[0][0]
__________________________________________________________________________________________________
mixed7 (Concatenate)            (None, 28, 28, 768)  0           activation_253[0][0]
                                                                 activation_256[0][0]
                                                                 activation_261[0][0]
                                                                 activation_262[0][0]
__________________________________________________________________________________________________
conv2d_175 (Conv2D)             (None, 28, 28, 192)  147456      mixed7[0][0]
__________________________________________________________________________________________________
batch_normalization_175 (BatchN (None, 28, 28, 192)  576         conv2d_175[0][0]
__________________________________________________________________________________________________
activation_265 (Activation)     (None, 28, 28, 192)  0           batch_normalization_175[0][0]
__________________________________________________________________________________________________
conv2d_176 (Conv2D)             (None, 28, 28, 192)  258048      activation_265[0][0]
__________________________________________________________________________________________________
batch_normalization_176 (BatchN (None, 28, 28, 192)  576         conv2d_176[0][0]
__________________________________________________________________________________________________
activation_266 (Activation)     (None, 28, 28, 192)  0           batch_normalization_176[0][0]
__________________________________________________________________________________________________
conv2d_173 (Conv2D)             (None, 28, 28, 192)  147456      mixed7[0][0]
__________________________________________________________________________________________________
conv2d_177 (Conv2D)             (None, 28, 28, 192)  258048      activation_266[0][0]
__________________________________________________________________________________________________
batch_normalization_173 (BatchN (None, 28, 28, 192)  576         conv2d_173[0][0]
__________________________________________________________________________________________________
batch_normalization_177 (BatchN (None, 28, 28, 192)  576         conv2d_177[0][0]
__________________________________________________________________________________________________
activation_263 (Activation)     (None, 28, 28, 192)  0           batch_normalization_173[0][0]
__________________________________________________________________________________________________
activation_267 (Activation)     (None, 28, 28, 192)  0           batch_normalization_177[0][0]
__________________________________________________________________________________________________
conv2d_174 (Conv2D)             (None, 13, 13, 320)  552960      activation_263[0][0]
__________________________________________________________________________________________________
conv2d_178 (Conv2D)             (None, 13, 13, 192)  331776      activation_267[0][0]
__________________________________________________________________________________________________
batch_normalization_174 (BatchN (None, 13, 13, 320)  960         conv2d_174[0][0]
__________________________________________________________________________________________________
batch_normalization_178 (BatchN (None, 13, 13, 192)  576         conv2d_178[0][0]
__________________________________________________________________________________________________
activation_264 (Activation)     (None, 13, 13, 320)  0           batch_normalization_174[0][0]
__________________________________________________________________________________________________
activation_268 (Activation)     (None, 13, 13, 192)  0           batch_normalization_178[0][0]
__________________________________________________________________________________________________
max_pooling2d_10 (MaxPooling2D) (None, 13, 13, 768)  0           mixed7[0][0]
__________________________________________________________________________________________________
mixed8 (Concatenate)            (None, 13, 13, 1280) 0           activation_264[0][0]
                                                                 activation_268[0][0]
                                                                 max_pooling2d_10[0][0]
__________________________________________________________________________________________________
conv2d_183 (Conv2D)             (None, 13, 13, 448)  573440      mixed8[0][0]
__________________________________________________________________________________________________
batch_normalization_183 (BatchN (None, 13, 13, 448)  1344        conv2d_183[0][0]
__________________________________________________________________________________________________
activation_273 (Activation)     (None, 13, 13, 448)  0           batch_normalization_183[0][0]
__________________________________________________________________________________________________
conv2d_180 (Conv2D)             (None, 13, 13, 384)  491520      mixed8[0][0]
__________________________________________________________________________________________________
conv2d_184 (Conv2D)             (None, 13, 13, 384)  1548288     activation_273[0][0]
__________________________________________________________________________________________________
batch_normalization_180 (BatchN (None, 13, 13, 384)  1152        conv2d_180[0][0]
__________________________________________________________________________________________________
batch_normalization_184 (BatchN (None, 13, 13, 384)  1152        conv2d_184[0][0]
__________________________________________________________________________________________________
activation_270 (Activation)     (None, 13, 13, 384)  0           batch_normalization_180[0][0]
__________________________________________________________________________________________________
activation_274 (Activation)     (None, 13, 13, 384)  0           batch_normalization_184[0][0]
__________________________________________________________________________________________________
conv2d_181 (Conv2D)             (None, 13, 13, 384)  442368      activation_270[0][0]
__________________________________________________________________________________________________
conv2d_182 (Conv2D)             (None, 13, 13, 384)  442368      activation_270[0][0]
__________________________________________________________________________________________________
conv2d_185 (Conv2D)             (None, 13, 13, 384)  442368      activation_274[0][0]
__________________________________________________________________________________________________
conv2d_186 (Conv2D)             (None, 13, 13, 384)  442368      activation_274[0][0]
__________________________________________________________________________________________________
average_pooling2d_17 (AveragePo (None, 13, 13, 1280) 0           mixed8[0][0]
__________________________________________________________________________________________________
conv2d_179 (Conv2D)             (None, 13, 13, 320)  409600      mixed8[0][0]
__________________________________________________________________________________________________
batch_normalization_181 (BatchN (None, 13, 13, 384)  1152        conv2d_181[0][0]
__________________________________________________________________________________________________
batch_normalization_182 (BatchN (None, 13, 13, 384)  1152        conv2d_182[0][0]
__________________________________________________________________________________________________
batch_normalization_185 (BatchN (None, 13, 13, 384)  1152        conv2d_185[0][0]
__________________________________________________________________________________________________
batch_normalization_186 (BatchN (None, 13, 13, 384)  1152        conv2d_186[0][0]
__________________________________________________________________________________________________
conv2d_187 (Conv2D)             (None, 13, 13, 192)  245760      average_pooling2d_17[0][0]
__________________________________________________________________________________________________
batch_normalization_179 (BatchN (None, 13, 13, 320)  960         conv2d_179[0][0]
__________________________________________________________________________________________________
activation_271 (Activation)     (None, 13, 13, 384)  0           batch_normalization_181[0][0]
__________________________________________________________________________________________________
activation_272 (Activation)     (None, 13, 13, 384)  0           batch_normalization_182[0][0]
__________________________________________________________________________________________________
activation_275 (Activation)     (None, 13, 13, 384)  0           batch_normalization_185[0][0]
__________________________________________________________________________________________________
activation_276 (Activation)     (None, 13, 13, 384)  0           batch_normalization_186[0][0]
__________________________________________________________________________________________________
batch_normalization_187 (BatchN (None, 13, 13, 192)  576         conv2d_187[0][0]
__________________________________________________________________________________________________
activation_269 (Activation)     (None, 13, 13, 320)  0           batch_normalization_179[0][0]
__________________________________________________________________________________________________
mixed9_0 (Concatenate)          (None, 13, 13, 768)  0           activation_271[0][0]
                                                                 activation_272[0][0]
__________________________________________________________________________________________________
concatenate_3 (Concatenate)     (None, 13, 13, 768)  0           activation_275[0][0]
                                                                 activation_276[0][0]
__________________________________________________________________________________________________
activation_277 (Activation)     (None, 13, 13, 192)  0           batch_normalization_187[0][0]
__________________________________________________________________________________________________
mixed9 (Concatenate)            (None, 13, 13, 2048) 0           activation_269[0][0]
                                                                 mixed9_0[0][0]
                                                                 concatenate_3[0][0]
                                                                 activation_277[0][0]
__________________________________________________________________________________________________
conv2d_192 (Conv2D)             (None, 13, 13, 448)  917504      mixed9[0][0]
__________________________________________________________________________________________________
batch_normalization_192 (BatchN (None, 13, 13, 448)  1344        conv2d_192[0][0]
__________________________________________________________________________________________________
activation_282 (Activation)     (None, 13, 13, 448)  0           batch_normalization_192[0][0]
__________________________________________________________________________________________________
conv2d_189 (Conv2D)             (None, 13, 13, 384)  786432      mixed9[0][0]
__________________________________________________________________________________________________
conv2d_193 (Conv2D)             (None, 13, 13, 384)  1548288     activation_282[0][0]
__________________________________________________________________________________________________
batch_normalization_189 (BatchN (None, 13, 13, 384)  1152        conv2d_189[0][0]
__________________________________________________________________________________________________
batch_normalization_193 (BatchN (None, 13, 13, 384)  1152        conv2d_193[0][0]
__________________________________________________________________________________________________
activation_279 (Activation)     (None, 13, 13, 384)  0           batch_normalization_189[0][0]
__________________________________________________________________________________________________
activation_283 (Activation)     (None, 13, 13, 384)  0           batch_normalization_193[0][0]
__________________________________________________________________________________________________
conv2d_190 (Conv2D)             (None, 13, 13, 384)  442368      activation_279[0][0]
__________________________________________________________________________________________________
conv2d_191 (Conv2D)             (None, 13, 13, 384)  442368      activation_279[0][0]
__________________________________________________________________________________________________
conv2d_194 (Conv2D)             (None, 13, 13, 384)  442368      activation_283[0][0]
__________________________________________________________________________________________________
conv2d_195 (Conv2D)             (None, 13, 13, 384)  442368      activation_283[0][0]
__________________________________________________________________________________________________
average_pooling2d_18 (AveragePo (None, 13, 13, 2048) 0           mixed9[0][0]
__________________________________________________________________________________________________
conv2d_188 (Conv2D)             (None, 13, 13, 320)  655360      mixed9[0][0]
__________________________________________________________________________________________________
batch_normalization_190 (BatchN (None, 13, 13, 384)  1152        conv2d_190[0][0]
__________________________________________________________________________________________________
batch_normalization_191 (BatchN (None, 13, 13, 384)  1152        conv2d_191[0][0]
__________________________________________________________________________________________________
batch_normalization_194 (BatchN (None, 13, 13, 384)  1152        conv2d_194[0][0]
__________________________________________________________________________________________________
batch_normalization_195 (BatchN (None, 13, 13, 384)  1152        conv2d_195[0][0]
__________________________________________________________________________________________________
conv2d_196 (Conv2D)             (None, 13, 13, 192)  393216      average_pooling2d_18[0][0]
__________________________________________________________________________________________________
batch_normalization_188 (BatchN (None, 13, 13, 320)  960         conv2d_188[0][0]
__________________________________________________________________________________________________
activation_280 (Activation)     (None, 13, 13, 384)  0           batch_normalization_190[0][0]
__________________________________________________________________________________________________
activation_281 (Activation)     (None, 13, 13, 384)  0           batch_normalization_191[0][0]
__________________________________________________________________________________________________
activation_284 (Activation)     (None, 13, 13, 384)  0           batch_normalization_194[0][0]
__________________________________________________________________________________________________
activation_285 (Activation)     (None, 13, 13, 384)  0           batch_normalization_195[0][0]
__________________________________________________________________________________________________
batch_normalization_196 (BatchN (None, 13, 13, 192)  576         conv2d_196[0][0]
__________________________________________________________________________________________________
activation_278 (Activation)     (None, 13, 13, 320)  0           batch_normalization_188[0][0]
__________________________________________________________________________________________________
mixed9_1 (Concatenate)          (None, 13, 13, 768)  0           activation_280[0][0]
                                                                 activation_281[0][0]
__________________________________________________________________________________________________
concatenate_4 (Concatenate)     (None, 13, 13, 768)  0           activation_284[0][0]
                                                                 activation_285[0][0]
__________________________________________________________________________________________________
activation_286 (Activation)     (None, 13, 13, 192)  0           batch_normalization_196[0][0]
__________________________________________________________________________________________________
mixed10 (Concatenate)           (None, 13, 13, 2048) 0           activation_278[0][0]
                                                                 mixed9_1[0][0]
                                                                 concatenate_4[0][0]
                                                                 activation_286[0][0]
__________________________________________________________________________________________________
global_average_pooling2d_6 (Glo (None, 2048)         0           mixed10[0][0]
==================================================================================================
Total params: 21,802,784
Trainable params: 21,768,352
Non-trainable params: 34,432
__________________________________________________________________________________________________
257/257 [==============================] - 261s 1s/step
73/73 [==============================] - 72s 991ms/step
…
